my_model.pth (torch, 365980 bytes, 58 tensors)

net.0.weight f4 [32, 3, 3, 3]
000000 f6 44 11 3e cf 58 7c bc 37 92 e7 bc 7d dc 1b 3e
       0.14186463 -0.015402033 -0.028267963 0.15220828
000010 29 d9 de bd 1b ae 86 3d 2e 2d db bd 10 64 75 3d
       -0.10881264 0.06576177 -0.10701977 0.05990988
000020 03 23 b3 bd 1d 4e f3 3d ee e2 11 3e 1c ab a2 3d
       -0.08746912 0.11880133 0.14246723 0.07942793
000030 b6 e7 51 3e b1 05 ea bd e4 34 ee bd 71 11 62 bd
       0.20498547 -0.11426867 -0.11631182 -0.055192415
000040 b5 49 01 be 2c 38 15 be 42 87 bb 3e dd 7e 1b 3e
       -0.12625773 -0.14572209 0.3662663 0.15185113
000050 9d 25 3f 3d 77 f9 a3 3d 7a 7a ef bd ac dc 3d be
       0.04666673 0.08006566 -0.116932824 -0.18541211
000060 60 5d df bc b5 3a 5f be 9a dc 58 bd 8e 73 91 3d
       -0.027266204 -0.21799739 -0.052944757 0.071021184
000070 4f 77 55 be d2 a1 ed 3d 2e e1 ee 3d 79 15 7c 3e
       -0.20846294 0.116031304 0.11664043 0.24617566
000080 50 56 5c 3e a8 ce aa be 3d f9 ba be 0c ca 82 be
       0.215173 -0.3336079 -0.3651828 -0.25544775
000090 03 13 48 3e 32 b8 64 3d 57 53 19 3e 7f 1e 86 3d
       0.19538502 0.055839725 0.14973198 0.065487854
0000a0 10 52 c0 3e 7a a4 89 3d 0f 83 0c 3e 98 30 94 bd
       0.3756261 0.067208245 0.1372187 -0.07235831
0000b0 3b 20 3c be 15 48 20 3d 60 66 a8 bd 4c 40 05 3d
       -0.1837167 0.039131243 -0.082226515 0.03253202
0000c0 84 8c 1b bd ba 31 68 3d 02 3d 36 be bb 90 c0 bd
       -0.037975803 0.056688048 -0.1779671 -0.09402605
0000d0 0f c1 31 3d 7b cb 20 be aa 27 6a 3c ea c8 c8 3c
       0.043397006 -0.15702622 0.014291683 0.024509866
0000e0 88 6b c7 bd d8 ed 5d be 44 e1 ea 3d 17 b9 ac 3d
       -0.09737307 -0.21672761 0.11468747 0.084337406
0000f0 fb 76 25 be 8f fe 33 3e 72 3e 2e 3e 29 70 18 3e
       -0.16158669 0.17577575 0.17016008 0.14886536
000100 30 fe ca bd ab 1f fd 3b 10 ce 4e bd 2b 75 0d 3d
       -0.09911764 0.0077247224 -0.050489485 0.03453557
000110 35 dc ff bd cc 10 53 be b5 90 89 3d 4f 55 ba bd
       -0.12493173 -0.20611876 0.06717054 -0.090983026
000120 77 3d 1e 3e 6e 05 70 3d c4 a5 f5 3d 53 d5 34 3d
       0.15453134 0.05859893 0.11994508 0.044148754
000130 c5 c5 8e 3d 45 26 ad 3d 12 b6 74 be 6e bf b6 ba
       0.06971315 0.08454565 -0.2389758 -0.0013942549
000140 8b 10 86 be 8a 56 3c be 5d f6 4e bd a1 02 af bd
       -0.26184496 -0.18392387 -0.05052792 -0.08545423
000150 e7 f7 34 3e b9 a2 b9 bd 30 ef 18 be 50 f7 98 3e
       0.17672692 -0.0906424 -0.14934993 0.29876184
000160 4f b7 b4 3d 06 7c 49 3e 80 d0 11 3d 51 30 5d be
       0.08824026 0.19676217 0.03559923 -0.21600462
000170 47 62 99 bb 18 af 51 3d ac 52 0d be d8 55 ee bd
       -0.004680905 0.051192373 -0.13801068 -0.11637467
000180 a7 ec b6 3d 67 94 a6 3d b9 a9 7e bd cc 31 fb bc
       0.089318566 0.08133774 -0.06217358 -0.030663393
000190 41 14 44 3e 88 a5 2c 3b 08 70 c5 3d 43 d4 ad 3d
       0.19148351 0.0026343782 0.09640509 0.08487751
0001a0 8c a6 db bd ef f1 6d be 90 0c 47 3e 87 dc 80 3c
       -0.10725126 -0.23236822 0.19438386 0.015730156
0001b0 57 4d cb 3d ea fa e7 bc 7e 60 40 3c 3a 1a be 3d
       0.09926861 -0.028317887 0.0117417555 0.09282346
0001c0 be b1 13 3e 19 d0 17 be 8a 7c 16 bd ce b6 cf 3d
       0.14423272 -0.14825477 -0.036739863 0.10142289
0001d0 f6 26 b4 3d a8 28 5f 3d f4 e3 5c be ac b2 18 be
       0.08796494 0.054482132 -0.21571332 -0.14911908
0001e0 00 bc 4f be b3 12 dc bc 17 e4 45 3e 1e d4 13 be
       -0.2028656 -0.026864385 0.1932529 -0.14436385
0001f0 ff 53 6f 3d c2 e5 2c be f6 8e 6e be a6 14 d0 bd
       0.058429714 -0.1688452 -0.23296723 -0.101601884
000200 b6 fb 16 3e 2a 1b f0 3d a4 a6 0d be 67 78 c2 3d
       0.14744458 0.11723931 -0.138331 0.09495621
000210 0a e4 57 3e 0c f5 13 3e eb b8 fc 3d b9 1c 1a 3e
       0.21083084 0.14448947 0.12339958 0.1505002
000220 21 77 c4 3d 15 f5 33 3c 5a 0f 64 be fa ec 94 be
       0.095930345 0.010983725 -0.22271481 -0.2908705
000230 c3 2e 52 be 4a 78 53 bd 65 4a 2a be 56 18 64 3c
       -0.2052565 -0.05162839 -0.16629942 0.013921818
000240 9a 62 04 3e 7a 08 8f 3c 13 6a 22 3e 43 85 a7 3d
       0.12928239 0.017460097 0.15860777 0.081797145
000250 08 7a f8 3d 3c cb 52 3e cf a5 0b 3d 1c c6 99 3e
       0.121326506 0.2058534 0.034093674 0.30033958
000260 70 fa 12 3e 6a e8 8a bd fa 79 68 be 04 e1 e4 bd
       0.14353347 -0.06782611 -0.2270278 -0.11175731
000270 fa 18 3f be 66 66 19 be bf 29 34 3e 60 ff 83 bd
       -0.18661872 -0.14980468 0.1759405 -0.06445193
000280 2c 1c e2 bd 94 1e 49 3e 33 d9 b5 3c dc c8 ed 3d
       -0.110405296 0.19640571 0.022198295 0.116105765
000290 21 a8 b5 bd 0e 02 d6 3d 77 60 ed 3c 2f 71 6c 3d
       -0.08869959 0.10449611 0.028976662 0.057725128
0002a0 c5 5d 96 be c9 50 60 be 88 05 2d be 17 75 5b 3d
       -0.29368415 -0.21905817 -0.16896641 0.053578462
0002b0 ce c5 62 3d 88 f7 a0 3d 3b d5 62 3e c6 cd a1 3e
       0.055364423 0.07859713 0.22151653 0.31602305
0002c0 6a 0c 94 3e f2 a4 09 be 47 32 80 be ca cc eb 3d
       0.2891572 -0.13441828 -0.2503836 0.1151367
0002d0 1d f1 54 bd 62 0c 92 3b 7f 3a 06 be d4 02 1d bd
       -0.051987756 0.0044570426 -0.13108252 -0.038332775
0002e0 17 e9 23 bd e1 ef a2 3e 01 76 8b be 99 04 7a be
       -0.040017214 0.31823638 -0.27238467 -0.24415816
0002f0 af 54 da 3c 9d 89 b5 bd f0 1c cb 3d 64 32 c2 bd
       0.026651708 -0.08864138 0.09917629 -0.094822675
000300 fb 5c 27 be 08 96 ca bc 71 a2 d0 3d 3c e3 10 be
       -0.16344063 -0.024729744 0.10187233 -0.14149183
000310 3a 92 1c 3e d3 8c 3a 3e 24 7c 63 3e dd 79 f7 bd
       0.15290156 0.18217783 0.22215325 -0.120837905
000320 a1 dd d3 bc b7 0d 49 be 14 67 00 3e 07 26 17 be
       -0.025862517 -0.19634138 0.12539321 -0.147606
000330 42 54 9a 3d 1c dc 0a 3d 32 2c e8 bb 3a 29 36 ba
       0.07535602 0.03390132 -0.0070853466 -0.0006948892
000340 1b 7c 74 3b aa 76 01 bd d5 d7 2a bb c9 86 cb 3c
       0.0037305418 -0.031607307 -0.0026068587 0.024844544
000350 6a 04 8a be b7 33 c1 3d 43 f0 27 3e da a7 cf 3d
       -0.26956493 0.09433692 0.16400246 0.10139437
000360 58 c6 00 bc 76 a2 7e be 5d 0d b7 bd 33 18 e6 bc
       -0.007859789 -0.24866661 -0.08938096 -0.028087711
000370 48 67 87 be 66 ce 5a 3e 14 60 a6 be 55 72 50 be
       -0.26445985 0.21367797 -0.32495177 -0.20356114
000380 a6 83 3a 3e b1 7f 00 be 2f f6 9f 3d d4 a7 a4 3e
       0.18214282 -0.1254871 0.07810628 0.32159293
000390 aa 56 13 3e e2 d5 bd 3e 67 b0 8c 3e 1c 53 2b be
       0.14388528 0.37077242 0.27478334 -0.16730922
0003a0 64 03 cc 3e f2 03 99 3e 41 d8 b1 be 99 c2 43 bd
       0.39846337 0.29885823 -0.347353 -0.047793005
0003b0 22 19 37 be d8 7f 20 be 11 d9 f6 3d bc 78 46 bd
       -0.17880681 -0.15673769 0.12053121 -0.048454985
0003c0 d5 2d d8 be b6 78 b6 3c c1 9e 5f 3e 42 0d 33 bb
       -0.42222467 0.022274356 0.21837904 -0.0027321135
0003d0 14 92 e4 bd 92 f9 4e 3d d2 50 35 be 6e ae 03 be
       -0.11160675 0.050530978 -0.17706612 -0.12859508
0003e0 06 8c 5d bd bc a1 2c 3e 3d 23 6f 3e cc 87 0f 3d
       -0.054088615 0.16858572 0.23353286 0.035041615
0003f0 cc 50 ef 3c 1f 7b a2 3d db 92 f0 3c ef 25 1b be
       0.029213332 0.0793364 0.029366901 -0.1515119

net.0.bias f4 [32]
000000 ee a7 59 be f2 82 24 3d 2b 98 98 be a1 fe 2d be
       -0.21255466 0.04016394 -0.29803595 -0.16991664
000010 b1 65 22 be 5d bc 6c 3d 62 8f 69 be 37 fd 5d bd
       -0.15859105 0.057796825 -0.22808602 -0.054196563
000020 cd 8e 0c 3d be 9f 6b bd db 4e 23 3d 2a bc e3 bd
       0.034315873 -0.05752539 0.039870124 -0.11119874
000030 f2 42 3c be 42 4e af 3c 77 81 82 be 3d 49 8c be
       -0.18384913 0.02139962 -0.254894 -0.27399626
000040 4c 50 3e be 75 17 31 be 90 f0 b9 3c 0b 83 b2 3c
       -0.18585318 -0.17294104 0.022697717 0.021791002
000050 f7 4a 51 3d dd d2 58 be c5 88 9f be e7 2d db 3c
       0.051096883 -0.21174188 -0.31159034 0.026755286
000060 cb 98 55 bd fc fc d3 bc c6 b2 b6 3c 1c 01 1e 3d
       -0.052147668 -0.025877468 0.022302043 0.038575277
000070 7e 20 e3 3c 57 df ff 3c c2 5f 18 be 77 5d be bd
       0.027725454 0.031234426 -0.14880279 -0.09295171

net.1.resnet_block.0.weight f4 [32, 32, 3, 3]
000000 56 f1 91 3d bc 67 d0 3e 4e 34 5f 3e b5 ac bd be
       0.07126109 0.40704143 0.21797296 -0.37045828
000010 4f 02 9e bd 31 c0 b2 bd 67 81 a4 3c 27 42 83 3e
       -0.07715284 -0.08728064 0.020081235 0.25636408
000020 44 c8 28 3e b3 51 75 be 3a c0 dc bd c8 4b 12 be
       0.16482645 -0.23956947 -0.10778852 -0.14286721
000030 2e 9c ac 3d a3 e3 25 3e 48 7b 7d bd c8 22 8e 3e
       0.084282264 0.16200118 -0.06188515 0.2776091
000040 a3 e1 9a 3d aa 94 79 be 6d d8 a1 3d 97 21 57 3e
       0.07562568 -0.24373117 0.07902608 0.21008907
000050 38 07 33 3d 84 78 41 be 89 bf 94 bd 2a 94 3c be
       0.043708056 -0.1889363 -0.07263095 -0.18415895
000060 5b 9a 98 3c 53 6e d0 3d 74 da a4 bd 0b 78 75 3e
       0.01862829 0.10177293 -0.08049479 0.23971574
000070 24 7e a4 3e 8b e5 a6 3d 60 92 55 bd dd 72 16 3e
       0.32127488 0.081492506 -0.052141547 0.14692254
000080 03 6a d0 bc 62 7f 02 3e 9c 57 92 3e 49 ac 8e 3d
       -0.025441175 0.12743905 0.28582466 0.069664545
000090 d6 25 60 bd 03 aa a4 3c c9 5f ac bd 2d 5b 80 bd
       -0.054723583 0.0201006 -0.08416707 -0.062673904
0000a0 22 24 38 bd 60 63 b1 bd c6 51 65 bd b4 67 fa 3a
       -0.044956334 -0.086615324 -0.05598619 0.0019104392
0000b0 17 81 95 bd 9c 0a 3f 3e 8f ec 38 3e f2 8b 94 3e
       -0.073000126 0.18656391 0.1805899 0.2901302
0000c0 31 e3 00 bf 25 1c 8c bd 56 06 8d 3e 43 8c bf bd
       -0.50346667 -0.06841306 0.27543896 -0.09352925
0000d0 dc 68 1f 3e 8a 77 ca 3e 21 8b 23 3d c4 ac df 3d
       0.15567344 0.39544326 0.039927606 0.10921624
0000e0 ce cb 60 3d 4b d4 04 be 76 ca f7 bd 3a 2c 6e be
       0.054881863 -0.12971608 -0.12099163 -0.23259059
0000f0 29 f2 f2 3d b5 62 aa 3e e2 66 48 bd 3b 04 a7 3d
       0.11862595 0.33278432 -0.04892624 0.08155104
000100 d8 59 8d 3d 7c ee f1 bd 35 05 cb bd 7e 8a b5 bd
       0.06901902 -0.118130654 -0.099131025 -0.08864306
000110 2f 68 71 bd a9 4d 40 3d fe e3 2e 3d 58 51 87 bd
       -0.058937248 0.046949062 0.0426979 -0.06607312
000120 40 ba de 3d 0b a9 63 be c6 58 ef be af ea 2b 3e
       0.10875368 -0.22232454 -0.46747416 0.16788743
000130 61 97 b2 be 30 3b 45 bf 7c 08 2d 3d e0 57 81 be
       -0.34881118 -0.7704344 0.04224442 -0.25262356
000140 93 03 61 be a6 bb 19 3e fa 64 94 3e de aa 84 3e
       -0.2197402 0.15012988 0.2898329 0.2591161
000150 e4 44 b6 be 84 d1 1f be d4 4d 1b be 55 d8 94 3d
       -0.35599434 -0.15607268 -0.15166408 0.072678246
000160 08 23 ed 3d bd c4 22 3e 7d 5b 8c bb b6 57 c2 3d
       0.11578947 0.15895362 -0.004283367 0.09489386
000170 7a c8 ad 39 7f c4 92 bd 70 53 f3 3c 1a 80 e9 3d
       0.00033146498 -0.07166385 0.029702872 0.114013866
000180 27 af 0e 3d 83 19 4e 3c d9 af 37 3d 63 93 1c 3e
       0.034835007 0.012579325 0.044845436 0.15290599
000190 09 7d 1c 3e 2e fb 75 3d 61 18 6b 3c 5e e7 c0 3d
       0.15282072 0.060053997 0.014349074 0.0941913
0001a0 f6 7e e6 3c 38 f5 e8 b9 17 79 51 3d 5b de 2a 3d
       0.028136712 -0.0004443319 0.05114087 0.04171596
0001b0 bd f3 99 3e a7 66 df 3e 8b a4 78 3e 16 97 15 be
       0.3006877 0.43633005 0.24281518 -0.14608416
0001c0 3b eb c2 3d fb f3 97 3c ca b2 0a 3e 24 0e 9d 3e
       0.09517523 0.018548956 0.13544765 0.3067485
0001d0 0a 1e 80 3e 20 af 9a bd 4b 13 bc bd 96 25 c0 bd
       0.25022918 -0.07552934 -0.09183367 -0.09382169
0001e0 ab ae 2a bd 57 fb ea bd 8f 7f 83 bd 95 2d 20 be
       -0.041670483 -0.114737205 -0.06420814 -0.15642388
0001f0 49 c4 11 be fb 28 69 bd b1 ed cd 3e e3 55 08 3f
       -0.14235033 -0.056923848 0.40220407 0.5325605
000200 c9 77 50 3e e3 8b f5 bd 3a 46 b5 3d d0 1f ec bd
       0.20358194 -0.11989572 0.08851285 -0.11529505
000210 85 ef 48 3c c2 13 39 3e 89 13 0a 3d 86 14 44 3e
       0.012264137 0.18073943 0.033710036 0.19148454
000220 9d 87 b3 3e 76 98 4e 3e 3e 82 0d 3d 01 bc 0d 3e
       0.35064402 0.20175347 0.034548037 0.13841249
000230 d1 fc a8 3c 9e 3d 28 3e 37 c5 7f 3e 00 0c 3e 3e
       0.020628365 0.16429755 0.24977575 0.18559265
000240 d1 6e 79 3e dc 19 0e 3f ae ce 65 3e 66 84 1b be
       0.2435868 0.5550821 0.22442123 -0.15187225
000250 44 61 e1 3d f6 d9 89 3c 82 3e d0 3d 8c 0b 4a 3e
       0.1100488 0.016827565 0.101681724 0.19730967
000260 24 6e 90 3d ac 93 d4 3e db 63 32 3f b4 47 0f 3e
       0.07052258 0.41518915 0.6968362 0.13992196
000270 5a 6e 22 bc 4d 20 c0 3d 0b b7 bd be ca aa 7d bd
       -0.009914005 0.09381161 -0.37053713 -0.061930455
000280 36 93 21 3e 1c 28 01 be bd 64 3a be 67 bc d4 3c
       0.15778813 -0.12612957 -0.18202491 0.025968743
000290 c4 b2 01 ba e1 5f b5 bc f7 e5 9f bc e0 55 25 3c
       -0.00049475976 -0.022140445 -0.019518835 0.010091275
0002a0 b6 d6 e5 bc 3d 89 8f 3d a3 bc b3 3b ab fa 06 3c
       -0.028056484 0.07008598 0.0054851337 0.008238475
0002b0 52 f8 f7 3b 30 4e 8e 3d 80 a4 8f 3d d2 2d e0 3d
       0.007567444 0.06948507 0.07013798 0.109462395
0002c0 d6 74 11 3d e6 fd cd 3c 7f b3 a6 3c a4 00 ec 3c
       0.035511814 0.025145482 0.020349262 0.0288089
0002d0 90 ec ba bd 00 e7 33 3d 88 00 b7 bd 36 e2 ca 3c
       -0.09127152 0.04392147 -0.08935648 0.024766069
0002e0 12 d4 b7 3d 06 7c db 38 65 78 29 3d d4 74 79 3d
       0.08975996 0.00010465835 0.041374583 0.06090243
0002f0 2c 3b 58 3d 7e 5e 7e 3e ed c1 aa 3e 98 48 17 3e
       0.052790806 0.24840733 0.3335108 0.14773786
000300 2b e6 c6 3c af 97 66 3e c0 18 4d bd 8d a3 53 3e
       0.024279675 0.225188 -0.05007243 0.20667858
000310 91 28 cd 3e 23 e1 e2 3d 5d c2 08 be bb 7f e8 bd
       0.40070012 0.11078098 -0.13355394 -0.11352488
000320 9e 29 51 be fb 9b 77 be 98 7c 53 be fa 74 73 be
       -0.20426032 -0.24180596 -0.20652997 -0.23775092
000330 4e 8a df bd 08 a8 8e bd 0a 73 36 be 82 c1 1a bd
       -0.109150514 -0.06965643 -0.17817321 -0.0377822
000340 a6 23 25 bd 20 b9 7b 3c 31 74 5c 3c 1f 18 06 3d
       -0.0403172 0.015363961 0.013455437 0.032737847
000350 9d 52 01 3d bf db dd 3c 67 70 30 bd be 02 21 3c
       0.031572927 0.027082322 -0.043075945 0.009827314
000360 8a d9 df 3c d6 21 be 3d 5d d0 83 3d 4f ab d9 3d
       0.02732541 0.092837974 0.064362265 0.10628378
000370 ae 4d ea 3c cb 62 97 bb 51 37 81 3d e4 e3 d6 3d
       0.028601494 -0.0046199313 0.06309379 0.104926854
000380 57 99 ef 3d d6 8c 13 3e 35 d3 56 3e f9 39 1d 3e
       0.11699169 0.14409193 0.20979007 0.15354146
000390 24 3d e8 3c 88 50 d0 3d 93 fc 81 3d 61 55 92 3d
       0.028349467 0.1017161 0.06347003 0.07145191
0003a0 f4 eb bb 3d f8 d9 06 3e c2 b8 2b 3e d7 23 6a 3e
       0.09175864 0.13169086 0.16769698 0.22865234
0003b0 7d 86 48 bc ab 4e 6e 3c df 62 9e 3d 87 e8 68 bc
       -0.012239096 0.014545123 0.07733702 -0.014215595
0003c0 c5 0a d4 3c e4 9b 1e 3e 1f 7b 53 bd 46 16 71 bd
       0.025884042 0.15489155 -0.05163109 -0.058859132
0003d0 88 2c 1f be f5 8c 1f bd 5b 0e 99 bd a1 de e0 bd
       -0.15544331 -0.038952786 -0.07473441 -0.10979963
0003e0 1a 04 8d bd 50 f6 71 bd 81 bc 88 bd 62 3f 6e bd
       -0.06885548 -0.059072793 -0.06676579 -0.058165915
0003f0 a3 f3 7f 3d b0 2c b2 3b a6 a0 5c 3d 7f 69 13 bd
       0.06248821 0.005437456 0.053864144 -0.03598928

net.1.resnet_block.0.bias f4 [32]
000000 d0 53 c4 bc 15 d5 77 bc c9 24 79 3d 9f b8 14 3e
       -0.023965746 -0.015126486 0.060826097 0.14523552
000010 bb c6 9a 3c 33 5d 55 bd 40 a9 d7 3c c8 94 03 3e
       0.01889359 -0.052090835 0.026325822 0.12849724
000020 91 cd f2 3c fe 93 8a 3d 52 3d 90 bc ca 7d 49 3c
       0.029639037 0.067665085 -0.017607365 0.012298057
000030 2d bc d6 bd 44 ba 0e 3e ff 8d 29 3d a0 67 79 3d
       -0.104851104 0.13938242 0.041395184 0.06088984
000040 ee 6e a4 bc 78 eb 03 3e 48 d4 1f 3d ff 01 9a bd
       -0.020072427 0.12882793 0.039020807 -0.07519912
000050 46 1b 3e be 48 b3 cd 3d 0f 47 22 3d 32 81 a9 3d
       -0.18565091 0.10043961 0.039618548 0.08276595
000060 72 12 9f bd 3f 23 4d bd c6 a8 ae 3e 4d 23 3d be
       -0.0776719 -0.05008244 0.3411314 -0.18470497
000070 7d 6e 0b be 52 24 05 3e 5f 46 73 3d 95 8d d8 bd
       -0.13616367 0.13002136 0.059393283 -0.1057388

net.1.resnet_block.1.weight f4 [32]
000000 10 af b7 3e 06 0d 7d 3e 4b 8b d6 3e 24 aa 91 3e
       0.3587575 0.24712 0.41903147 0.2845012
000010 14 ce c0 3e 1b a6 a0 3e 9b fe 96 3e 26 68 a8 3e
       0.37657225 0.31376728 0.29491124 0.3289196
000020 e8 79 5c 3e 1f 65 d4 3d af 78 34 3e 2b 69 06 3e
       0.21530879 0.1037085 0.17624162 0.13126056
000030 1a c0 d9 3e 69 f4 b7 3d 07 8d cd 3e be 3a 80 3e
       0.42529374 0.089821644 0.40146658 0.25044817
000040 c8 6a 82 3e f1 02 ad 3e e2 9c 8e 3e aa 5b 44 3e
       0.25472093 0.33791307 0.27854067 0.19175592
000050 6e c3 4f 3e 31 1a 9f 3e ca 63 41 3c 89 eb 97 3e
       0.20289394 0.3107467 0.011803577 0.29671887
000060 9d c9 88 3e de bf 3a 3e 9b 25 1c 3e 57 49 a8 3e
       0.2671632 0.18237254 0.1524872 0.32868454
000070 93 c9 c9 3d da 6f 96 3e cb 76 93 3e 2b 03 9d 3d
       0.098529 0.2938221 0.2880157 0.0766662

net.1.resnet_block.1.bias f4 [32]
000000 03 d3 09 bf b3 e6 51 bf 7e 6a 32 bf 71 8e f7 be
       -0.53837603 -0.81992644 -0.69693744 -0.48350862
000010 29 e5 0e bf 79 3b 25 bf 08 3c 15 bf d0 11 07 bf
       -0.5581842 -0.64543873 -0.58294725 -0.52761555
000020 27 f9 e2 be c8 1b 34 bf 13 91 2d bf 6e 4d 15 bf
       -0.44330713 -0.7035489 -0.6779949 -0.58321273
000030 94 d0 af be bc 08 05 bf 51 ba 35 bf 8e 9e 97 be
       -0.3433882 -0.5196645 -0.7098742 -0.29613155
000040 34 52 de be 21 96 00 bf d0 f7 f5 be 6b 1a d4 be
       -0.4342209 -0.5022908 -0.48040628 -0.41426405
000050 f0 bc 11 bf 39 9d 09 bf 17 a5 10 bf 87 4d f5 be
       -0.5692892 -0.5375553 -0.5650191 -0.4791071
000060 8d 8f 01 bf d6 d9 04 bf 04 16 8f be b1 c3 28 bf
       -0.50609666 -0.5189489 -0.27946484 -0.659236
000070 c2 c8 b7 be 2b 0f 04 bf fd 72 25 bf 3b 9c 04 bf
       -0.35895354 -0.51585644 -0.64628583 -0.5180089

net.1.resnet_block.1.running_mean f4 [32]
000000 85 06 1d c0 05 e0 8b bf 07 e4 44 40 59 4a c7 bf
       -2.453523 -1.092774 3.0764177 -1.5569564
000010 d4 a5 8c bf 68 08 0e 40 2d f5 ea bf b8 ad e0 bf
       -1.0988107 2.219263 -1.8356072 -1.7553015
000020 79 d1 47 bf e3 68 55 bf b5 f5 a5 bf 26 76 72 3f
       -0.78054005 -0.8336317 -1.2965609 0.9471153
000030 0a 7b 1b c0 55 73 ac 3f 5f fa 35 40 5c 2a 6a bf
       -2.4293847 1.3472697 2.8434064 -0.91470885
000040 a7 e5 03 40 d1 78 e0 bf 6e f9 0b c0 8a 1f 54 bf
       2.0608919 -1.753687 -2.187099 -0.82860625
000050 af cd a0 bf 49 e8 a5 3f 68 c0 d9 bf ba b1 f5 bf
       -1.256277 1.2961513 -1.7011843 -1.9194863
000060 88 77 5f bf 4e 14 26 bf 78 c0 65 40 fe dd f6 3f
       -0.87291765 -0.6487473 3.5898724 1.9286497
000070 f9 cf 6f 3f 53 d4 26 c0 82 ea f4 bf 15 14 f7 3f
       0.93676716 -2.6067092 -1.9134066 1.9303004

net.1.resnet_block.1.running_var f4 [32]
000000 6f 0e b0 3e bc 8f f5 3d f6 5e 24 3f 3e a6 bd 3e
       0.34386012 0.11990306 0.642074 0.37040895
000010 86 12 f5 3d d9 7f 61 3e 56 33 8b 3e 2e d4 b5 3e
       0.11966424 0.22021426 0.27187604 0.35513443
000020 d0 71 fd 3d 59 3f cd 3c 15 0b 1b 3d 66 a3 09 3d
       0.12375224 0.02505462 0.037852366 0.033603095
000030 8d 73 a4 3f ba 1f 50 3c c9 7d 07 3f a5 78 97 3e
       1.2847763 0.012702877 0.5292631 0.29584232
000040 02 b4 03 3e 2c e4 8c 3e ab 84 9e 3e d2 97 67 3e
       0.12861636 0.2751783 0.30960593 0.22616509
000050 ed 10 55 3e 5c d6 58 3e a2 0c cd 3d 53 ae 30 3e
       0.20807238 0.21175522 0.10012175 0.17254
000060 85 25 22 3e b9 d4 84 3d 72 0d bd 3d c8 a3 de 3d
       0.15834625 0.06485886 0.0923108 0.108710825
000070 5f 96 41 3d be 34 dc 3e 06 0b 82 3e 59 62 9e 3e
       0.047262546 0.4300899 0.25399035 0.30934408

net.2.resnet_block.0.weight f4 [32, 32, 3, 3]
000000 34 49 81 be e9 cc 5a be c5 51 45 be 80 84 89 be
       -0.25251162 -0.2136723 -0.19269474 -0.26858902
000010 c8 ed 7a be 64 22 85 be d4 2d 46 be 7c ee 03 be
       -0.24504769 -0.260028 -0.1935342 -0.12883943
000020 12 e5 7b be 54 d8 88 bb 29 57 18 bd e0 ac 1e bc
       -0.24599102 -0.004176179 -0.037192497 -0.009684771
000030 ea 76 d2 bb 68 84 6e bd 23 fa f5 bd a0 ab 15 bd
       -0.006422867 -0.05823174 -0.120106004 -0.036540627
000040 dc be 80 bd 56 ff b8 bd 57 0a d0 bd 23 c7 03 bd
       -0.062864035 -0.090330765 -0.10158222 -0.032172333
000050 4f 20 53 bd 39 9f 16 be 3f e6 dc bd d1 ff a7 bd
       -0.051544484 -0.14709176 -0.107861035 -0.0820309
000060 d7 8b f2 bd 8d a2 47 bd 09 e7 8f bd ad c0 71 bc
       -0.118430786 -0.048739005 -0.07026488 -0.01475541
000070 f6 61 9e bd 1d 35 06 bd 65 34 c1 bd 90 44 68 bb
       -0.07733528 -0.032765497 -0.094338216 -0.0035441257
000080 69 71 7e bd ae ec 0f bd f3 e4 81 bd c5 61 a1 bd
       -0.062119875 -0.035137825 -0.06342497 -0.07879976
000090 27 b6 24 be 5d f6 72 be 96 cd 29 be 40 4f 52 be
       -0.1608511 -0.23726793 -0.16582331 -0.20538044
0000a0 75 73 4d be 79 46 3a be 36 e7 6a be 7d ae 13 be
       -0.20063575 -0.18190946 -0.22939762 -0.14422031
0000b0 2e ca a0 bd 20 e5 c8 bd e5 ee aa bd 48 4c c8 bd
       -0.07851063 -0.09809327 -0.08346347 -0.097801745
0000c0 c4 65 d1 bd b0 9c e6 bd 19 c4 ce bd 92 90 3e bd
       -0.102244884 -0.112603545 -0.100959964 -0.04652459
0000d0 29 5b a3 bd 38 53 31 bc bc 23 f5 bd 43 df e4 bc
       -0.07976372 -0.010823064 -0.119697064 -0.02793849
0000e0 13 42 6a bd 63 c6 eb bd 7d 99 f1 bd 2b 1a 4d bd
       -0.05719192 -0.11512449 -0.11796854 -0.050073784
0000f0 56 e2 f5 bd a6 97 50 bd ec 88 03 bd ac c4 c8 3a
       -0.12006061 -0.050925873 -0.032113 0.0015317402
000100 cd 04 01 bd e8 34 2b be c6 d0 ae bd 4b c8 dd bd
       -0.03149872 -0.16719401 -0.08535914 -0.108292185
000110 41 bd 35 be e5 d6 8c bd 5c 24 a3 bd af ca 27 be
       -0.17747976 -0.068769254 -0.079659194 -0.16385911
000120 49 98 22 bd 7e aa 45 bd f0 c2 0f 3c 76 a3 94 ba
       -0.03969601 -0.048258297 0.008774504 -0.0011340219
000130 c5 32 da bb 83 24 57 3d 68 51 0d 3d 56 a9 2f 3d
       -0.006658884 0.052525055 0.034501463 0.0428861
000140 c2 e9 00 bc e5 4a f5 bc 1a b1 0a bd 73 b1 8a 3c
       -0.007868232 -0.029942939 -0.033860303 0.016930318
000150 d8 e9 b5 bd 8c fd a0 bd 6e 20 46 bd 01 94 c1 bd
       -0.08882493 -0.0786086 -0.04837077 -0.09452058
000160 45 69 0f be a5 05 db bd 82 6f 41 be bc 58 0a be
       -0.14005001 -0.10694436 -0.18890193 -0.13510412
000170 59 74 ef bc ed fc 36 be f5 05 0d be b1 14 bb bc
       -0.029230284 -0.17869921 -0.13771804 -0.022837015
000180 7c d3 bc bd 2f 7d 80 bd 9f 32 f5 bd a8 ae 24 be
       -0.09220025 -0.06273877 -0.11972546 -0.16082251
000190 44 d0 ff bd 79 c2 d3 bd 49 f5 bc bd f5 19 93 bd
       -0.124908954 -0.10339827 -0.09226472 -0.07182685
0001a0 41 e6 f2 bc 98 63 1b be 05 dc be bd 35 61 ef 3c
       -0.02965081 -0.15174711 -0.09319309 0.029221157
0001b0 15 12 8a bd c0 de 85 bd 76 92 85 bd 0d 6a 0b be
       -0.0674173 -0.06536627 -0.06522076 -0.13614674
0001c0 b3 14 11 be 83 43 99 bc 12 d8 1b be f4 f2 83 bb
       -0.14168052 -0.01870895 -0.15219143 -0.004026765
0001d0 80 e0 31 3d 5c fc 7f bd 67 49 15 bd 87 2d 96 bd
       0.04342699 -0.062496528 -0.036446955 -0.073329024
0001e0 d9 d2 3d bc 27 f2 83 bd ac 08 c1 3c 5e 7b 51 be
       -0.0115859145 -0.06442671 0.023563705 -0.20457217
0001f0 99 f3 ea bc 32 c1 3d 3c 8a 1f 5f be 7d b5 12 be
       -0.02868061 0.011581706 -0.21789375 -0.14327045
000200 d0 8b 3a be f3 fd 2e be 78 4e 42 bd a6 13 dc bd
       -0.18217397 -0.17089061 -0.047438115 -0.10745935
000210 65 83 b8 bd fa 9e 97 bd 40 4b 31 bc 85 f2 38 be
       -0.090094365 -0.07403369 -0.010821164 -0.18061264
000220 94 be 0f be 41 f3 be bd f2 e7 31 be d3 e4 84 bd
       -0.14037544 -0.09323741 -0.17373636 -0.06488957
000230 fe 27 55 3d e5 fa 42 be 17 0b 86 bc 18 da 06 3d
       0.052040093 -0.19041021 -0.01636271 0.032922834
000240 d1 e1 03 be 48 31 c1 bd 38 25 a2 bd aa d9 25 be
       -0.12879111 -0.09433228 -0.07917255 -0.16196314
000250 6b 8a 6c bc a8 f9 84 bc e6 e4 1e be 0b 6c 02 be
       -0.014437298 -0.016232327 -0.15517005 -0.12736528
000260 f0 e7 2c bd 45 e6 e8 bd 57 78 07 be 67 8d 4d be
       -0.04221338 -0.113720454 -0.132295 -0.20073472
000270 d0 01 1e be 80 22 7c be 73 89 3d be a3 ee 3c be
       -0.15430379 -0.24622536 -0.18509464 -0.18450408
000280 2d 97 34 be 3a c5 58 be 7e 2f ef bd 56 dd 0f be
       -0.17635794 -0.21168986 -0.1167898 -0.14049277
000290 c4 22 77 bd a9 56 27 be 45 57 27 be 30 96 0b be
       -0.06033589 -0.16341652 -0.16341884 -0.1363151
0002a0 e9 a8 dd bd 90 94 d5 bd 63 ef ba bd df 7d 84 bd
       -0.10823233 -0.10428727 -0.09127691 -0.064693205
0002b0 e0 72 d3 bd dd 25 4a bc 63 0f 2b be e9 d8 c5 bd
       -0.10324645 -0.012338129 -0.16705088 -0.09660513
0002c0 c5 3b 35 3b 30 75 25 be 7c b4 05 bd 29 12 19 3d
       0.0027654034 -0.16157985 -0.032642826 0.037370834
0002d0 1f 08 bd bd ce 33 0a be eb bd 24 be a1 a3 4b 3c
       -0.092300646 -0.13496324 -0.16088073 0.012429149
0002e0 83 17 15 bd c4 44 eb bd a9 fd 88 bd db f2 cb bd
       -0.036399376 -0.114877254 -0.06689007 -0.099584304
0002f0 43 f4 2b be 7b 46 9a bc d4 dc 74 bc 9a 63 87 bd
       -0.16792397 -0.018832436 -0.014945228 -0.06610794
000300 05 b1 6b 3d fb cb 03 3c cc 97 e8 bd 0d 5e 40 bc
       0.057541866 0.008044238 -0.11357078 -0.011741173
000310 05 9e d8 bc 85 db 69 bc 7e 10 be bb 5f 68 ca bd
       -0.026442537 -0.014273529 -0.005800306 -0.098831885
000320 03 28 b5 bd 2c 53 b5 3c d5 7c e5 bd 8f ee 70 be
       -0.08845522 0.022134386 -0.112054504 -0.23528503
000330 84 07 bd bd fc 1c 4e be c9 8a 45 be de 04 2a be
       -0.09229949 -0.20128244 -0.19291224 -0.16603419
000340 cc b4 d8 bd ba 89 a9 bd 55 11 8b bd a5 df d6 bd
       -0.10581359 -0.082782224 -0.06790415 -0.104918756
000350 bb 64 2b be b6 2c f4 bd ef ba 15 be 8c ec 3c be
       -0.16737644 -0.119225904 -0.14622091 -0.1844961
000360 c3 a1 22 be 82 d7 12 be 2d d5 f7 bc 9d 8f 3a bd
       -0.1588202 -0.14340022 -0.030253017 -0.045547117
000370 22 81 9f bd 1e 8d 40 3b c3 ed 8c bd 86 7a 95 bc
       -0.07788302 0.0029380987 -0.06881287 -0.0182469
000380 60 55 46 3b ff bf 0d be 23 97 c4 bd e2 93 03 be
       0.003026329 -0.13842772 -0.095991395 -0.12849382
000390 4a 12 f4 3a 47 8f d1 3a f6 a5 21 39 13 0d a8 bc
       0.0018621173 0.0015988135 0.00015415982 -0.020514047
0003a0 02 43 9b bd 17 4e 95 bc 9e 01 20 be 5b 18 8c bd
       -0.0758114 -0.018225713 -0.15625617 -0.06840583
0003b0 6d 9e 48 bd 9f 4e 82 bd 67 d1 10 bd b3 c1 9b bd
       -0.04897921 -0.06362652 -0.03535595 -0.076053046
0003c0 a9 3f fd bc b6 9c ca bd ec 29 fe bd 6b 77 17 be
       -0.030914145 -0.098931715 -0.1241034 -0.14791648
0003d0 30 a1 21 be a1 b6 85 bd e3 a6 e3 bd a9 6f 24 be
       -0.15784144 -0.06528974 -0.111158155 -0.1605822
0003e0 91 f1 01 be ea 40 09 be f9 f3 9b bd d3 d3 10 be
       -0.12689807 -0.13403669 -0.076148935 -0.14143305
0003f0 8a 09 c0 bd 09 c1 eb bd bd 3f 22 3d db 83 2d be
       -0.093768194 -0.11511428 0.039611567 -0.1694483

net.2.resnet_block.0.bias f4 [32]
000000 56 03 c4 3b 6b da 9b 3d 06 14 3a bd 28 5e e9 bd
       0.005981843 0.07610019 -0.045429252 -0.11394912
000010 21 e5 fd bb 9e 2f d9 3b 89 b7 a6 3d 63 33 a6 3d
       -0.0077482616 0.006627991 0.08140475 0.0811527
000020 1c 7f 81 bd 55 67 56 ba 6c 63 23 3e a0 8c 81 3b
       -0.06323072 -0.000817885 0.15955895 0.0039535314
000030 46 15 3c be a4 f9 b7 bd 5f f9 ab 3d fb c9 73 3d
       -0.1836749 -0.08983162 0.08397173 0.059518795
000040 b7 7e 9c 3c 5c 8c 19 bd fa 56 7d 3e a3 cc f8 3b
       0.019103391 -0.037487373 0.2474021 0.007592754
000050 cc fd e7 3c 2c 2b 93 bc 89 62 ea be ac d8 f1 be
       0.028319262 -0.017964922 -0.457783 -0.4723562
000060 4e b6 ae 3e 1f c0 c2 be 92 d8 a1 be c9 dd ec 3c
       0.34123462 -0.38037202 -0.31610543 0.02891435
000070 ab 07 54 3c cf 80 91 3d 14 b5 f7 bd 5a ef 8a 3d
       0.012941281 0.071046464 -0.12095085 0.06783934

net.2.resnet_block.1.weight f4 [32]
000000 00 ec b0 3d aa b6 5f 3d 70 92 8f 3e f6 ac 0c 3e
       0.086387634 0.05461756 0.2804141 0.13737854
000010 38 a7 83 3e cc 7f 80 3d e0 35 40 3e cf 6b 4b 3e
       0.25713515 0.06274375 0.18770552 0.19865344
000020 46 ae fb 3b da 8f 10 3e 55 47 5c 3e bb b7 2d 3e
       0.007680687 0.14117375 0.21511586 0.16964619
000030 cc 3e 28 3e 4c 01 e7 3c e6 d6 68 3e 7a 96 85 3d
       0.16430205 0.02819886 0.22738227 0.06522842
000040 1a cd 81 3e 7d 69 39 3e f2 19 ab 3c 71 9d 5e 3e
       0.25351793 0.18106647 0.020886395 0.21739747
000050 98 e0 2d 3e 91 3f e3 3d 80 4f 42 3d a1 48 87 3e
       0.16980207 0.11096109 0.0474391 0.264226
000060 6f 1e ed 3d a2 bf 30 3d 3f 3c 12 3e fd ae 15 3d
       0.1157807 0.043151505 0.14280795 0.036543835
000070 23 3c 04 3e 98 d5 0e 3e db ba 52 3e 0b 1e 8f 3c
       0.12913565 0.13948667 0.20579092 0.01747038

net.2.resnet_block.1.bias f4 [32]
000000 62 44 b6 be ef fe 4c bf 1c 20 3a be 3c e9 81 be
       -0.35599047 -0.800765 -0.18176311 -0.25373256
000010 e0 7f 57 bf 03 f4 5b bf e0 65 e8 be 9f 33 16 bf
       -0.84179497 -0.8591921 -0.45390224 -0.5867252
000020 47 e7 e2 bc 64 22 0d bf dc 84 a3 be b9 3c f3 be
       -0.027698172 -0.551306 -0.319373 -0.47507265
000030 62 07 b5 be 4f 6f 1a bf 8c 88 0d bf 0e 19 06 be
       -0.35357195 -0.60326093 -0.5528648 -0.13095495
000040 29 dc ec be ad 12 9f be e9 43 e6 bd 2a a8 f3 be
       -0.4626172 -0.31068936 -0.112434216 -0.47589236
000050 e8 86 07 bf 5c 8c 3d bf ce 60 d1 be 8a aa b9 be
       -0.52940226 -0.74042296 -0.4089417 -0.36262923
000060 29 fd a6 be 19 e1 c6 bd 98 8f 55 bd 7d 80 30 bf
       -0.3261502 -0.09710903 -0.052138895 -0.6894606
000070 c6 3e 6f be 18 c6 a3 be 47 1b 0e bf 68 1d 0f bf
       -0.2336379 -0.3198707 -0.5551037 -0.55904245

net.2.resnet_block.1.running_mean f4 [32]
000000 64 aa 15 40 92 1b 36 3f 30 e2 04 40 ab 81 f9 3f
       2.3385248 0.7113582 2.0763054 1.9492697
000010 e7 21 32 c0 69 4b ee 3f fa bc b5 3f 96 81 8f 3f
       -2.7833192 1.8616763 1.4198296 1.1211421
000020 17 2a 02 40 0e 2d d1 bd 17 ef 4d 40 68 35 ba 3f
       2.033819 -0.102136716 3.217718 1.4547548
000030 4c 8d a3 bf 45 69 7c bf 60 6f e2 bc b6 62 33 40
       -1.2777495 -0.9859813 -0.027640998 2.8028998
000040 ec 1a 48 3e 01 c7 69 3e 1b 66 6a 40 5d 90 ce 3f
       0.1954152 0.2282982 3.662482 1.6137806
000050 46 ea 0e 3f a6 05 40 c0 28 dd 2d 40 74 54 eb 3f
       0.5582622 -3.0003448 2.7166233 1.8385148
000060 b0 20 48 40 ca af 9a 3f 07 fa 8f 3f a5 75 1b bf
       3.126995 1.2084897 1.1248177 -0.60726386
000070 d8 94 11 3f 2e 3e a2 bc e6 df 9b 3f 23 c6 99 bd
       0.5686774 -0.01980504 1.2177703 -0.07508495

net.2.resnet_block.1.running_var f4 [32]
000000 02 45 93 3e 94 bb 45 3f 79 ff e1 3e 54 4f 55 3e
       0.28763586 0.77239347 0.44140223 0.20831043
000010 16 63 ee 3f 4b e2 4d 3f 74 4d 81 3f 37 55 58 3f
       1.8623989 0.8042342 1.0101762 0.8450503
000020 3f c2 37 3e e6 3f d8 3e 45 ef 6a 3f 23 cb 83 3f
       0.17945193 0.4223625 0.91771346 1.0296367
000030 2b 6a 1c 3f e8 be ff 3d 03 0c 8d 3e 93 6e 5a 3e
       0.610995 0.12487584 0.27548227 0.21331243
000040 01 2f 18 3f e0 f9 3c 3e 76 bb b2 3f 45 e0 81 3e
       0.5944672 0.18454695 1.3963459 0.25366417
000050 5c c4 9e 3e 14 8b 33 3f 08 29 01 40 dd 51 00 3e
       0.31009185 0.7013409 2.0181293 0.12531228
000060 c8 55 e2 3e 13 3e 7c 3d f9 87 3a 3e dc fb 79 3e
       0.4420607 0.061582636 0.18215932 0.24412483
000070 1b 0b 08 3f d9 74 8b 3e 1a ec 99 3d 86 52 ab 3e
       0.53141946 0.27237585 0.07515736 0.33461398

net.3.resnet_block.0.weight f4 [32, 32, 3, 3]
000000 d2 5f 42 be 15 4f 66 be 46 3c 5c be a8 22 50 be
       -0.18981865 -0.22491105 -0.21507367 -0.2032572
000010 e0 eb 64 be 25 2c 36 be 03 26 61 be 95 85 68 be
       -0.22355604 -0.17790277 -0.21987157 -0.22707208
000020 84 9f 30 be 53 cc 80 3d e1 bc 71 3d 93 b4 be 3c
       -0.1724835 0.06288972 0.05901802 0.023279464
000030 17 6a f8 3c e7 a2 e4 3c b6 b2 be 3d 4d 47 89 3c
       0.030324025 0.02790971 0.0931143 0.016757632
000040 6e 46 64 3d da 98 b8 bc f3 ac 88 3d b8 07 d9 3d
       0.05573123 -0.022533823 0.066736124 0.10597175
000050 91 79 8b 3d 72 e6 a2 bc 35 ef a8 3d 1e 21 ca 3c
       0.06810296 -0.019885276 0.0824875 0.024673995
000060 7f 87 44 3d d9 3d de bb 7a 1a 21 3d d2 42 9d 3d
       0.04798078 -0.006782275 0.03933189 0.076787606
000070 1c a6 cc bc 41 06 b0 bb d8 2b ae 3c b4 6b 29 3d
       -0.02498155 -0.0053718393 0.02126114 0.04136248
000080 2c 9a 08 3b d8 5f 2c 3d 8f fb b0 bc a8 28 6a bd
       0.0020843847 0.04208359 -0.021604327 -0.05716768
000090 a3 d0 11 be 4c 01 00 be 36 c5 45 bd e5 bf ed bd
       -0.14239745 -0.12500495 -0.048283778 -0.116088666
0000a0 93 45 78 bd 75 1f 01 be 88 10 17 be 94 23 bf bd
       -0.060613226 -0.12609656 -0.147524 -0.09332958
0000b0 3b d6 fe bc 8e c3 b2 bd 77 06 9c bd 04 94 9d bb
       -0.031108012 -0.08728705 -0.076184206 -0.0048089046
0000c0 8e e6 2c be 21 85 fb bc 15 02 b7 bd 9f 00 c6 bd
       -0.16884825 -0.03070313 -0.08935944 -0.09668087
0000d0 99 74 8c bb ff 13 f4 3c 41 ef bc bc bf 43 89 3c
       -0.0042863605 0.029794691 -0.023063304 0.016755937
0000e0 cb 5e a0 3d 06 5e 98 3c 75 4d 36 bd 29 6a 3d bc
       0.0783058 0.018599521 -0.044507463 -0.011560955
0000f0 cd 5f c4 bb 03 ac 7c bc 8c e5 c9 3b ea fa 74 bd
       -0.0059928657 -0.01542187 0.0061613973 -0.059809603
000100 4e 25 08 be b4 bb c0 bd 79 07 13 be ba 84 06 be
       -0.1329548 -0.094108015 -0.1435832 -0.13136569
000110 92 d6 c2 bd 1f b8 17 be 6c e7 1d bd 7c 45 82 bd
       -0.09513582 -0.1481633 -0.03855078 -0.06360909
000120 dc 23 a4 3d ab ec 8b 3d 30 55 f5 3d e2 21 bc 3d
       0.08014652 0.0683225 0.11979139 0.0918615
000130 d3 d5 c5 3d 56 d7 77 3d ca 68 eb 3d 12 28 92 3d
       0.09659924 0.060508095 0.11494596 0.07136549
000140 c5 da 55 3c 6d 92 15 be ac 63 de bd bc 9a b2 bd
       0.013052647 -0.14606638 -0.10858855 -0.087209195
000150 44 e3 01 be 5e 62 2d be 67 b9 a2 bd d2 9e 1b be
       -0.12684351 -0.16932055 -0.07945519 -0.15197304
000160 8c 6b 69 bd 0d 2e 37 bd 4b f5 d0 bc 80 0e bd bc
       -0.05698733 -0.04472165 -0.02550759 -0.023078203
000170 0f ff ec 3c 88 47 95 3d a1 5b fb 3d 46 f9 0f 3e
       0.028930215 0.07289034 0.12273336 0.14059934
000180 49 d0 d1 3d 42 6d 14 3e 97 fe 3c 3e 13 4c 96 bd
       0.10244805 0.14494804 0.18456493 -0.07338729
000190 f8 d5 72 bc 93 b2 db bd 11 1c 65 bc 5d 6b 19 3d
       -0.014821522 -0.1072742 -0.013983742 0.037455905
0001a0 5c 1e eb 3c d4 69 2c 3a 8c e2 57 3d 78 b3 ab 3d
       0.028701 0.0006577049 0.052706286 0.0838384
0001b0 73 98 35 be 8f bb de bd cf 7e b2 bd f8 77 5e be
       -0.17733936 -0.10875618 -0.08715593 -0.21725452
0001c0 7e dc 17 be 7a 69 3b bd 39 24 d0 bd d1 07 ce bd
       -0.14830205 -0.045754887 -0.10163159 -0.100600846
0001d0 70 68 80 bd a5 35 a3 bc bc 1e 18 3c 28 43 07 bd
       -0.0626992 -0.01992304 0.009284671 -0.03302303
0001e0 c2 65 20 3d 13 e5 bc bc de 25 90 3c 3b 37 d4 bd
       0.039159544 -0.02305845 0.017596181 -0.10362097
0001f0 36 9d ae bd 88 75 cd 3b 62 95 22 be cd 51 07 be
       -0.08526079 0.0062701143 -0.15877298 -0.13214798
000200 bf 7f de bd f4 c4 d2 bd 84 d3 37 bd ed fa 3b 3b
       -0.108642094 -0.10291472 -0.04487945 0.00286835
000210 7c c5 06 be ed ab 0b be a1 4e a9 bd 4f dd ff bd
       -0.13161272 -0.13639803 -0.082669504 -0.12493383
000220 fb b8 cf bd 78 1c d6 bd 9c a9 03 be d3 45 32 be
       -0.10142704 -0.10454649 -0.1285767 -0.17409448
000230 cf 9e 40 be b5 47 8e bd 16 fc f8 bd 32 0b 4b be
       -0.1881058 -0.06947271 -0.121574566 -0.1982849
000240 1d c0 08 be f5 bc b9 bd 65 33 1c bd 59 c2 f9 bd
       -0.13354535 -0.09069244 -0.03813495 -0.12195272
000250 21 18 f4 bd f5 18 b9 bd f3 b1 45 be d5 d5 14 be
       -0.11918665 -0.09037963 -0.19306163 -0.14534695
000260 a1 db 1d be e5 83 1b bd 3d 51 e9 bd 63 7b 37 bd
       -0.15415813 -0.03796758 -0.11392448 -0.044795405
000270 24 40 64 bd 6f e4 9f bd bc 10 ce bd ae 40 b5 bd
       -0.05572523 -0.07807242 -0.100617856 -0.08850227
000280 a5 af c1 bd 3d 47 ed bd 10 18 00 bd 61 a6 02 3d
       -0.0945733 -0.11585853 -0.031272948 0.031896953
000290 26 2e e4 3d 4f 60 3f 3d c1 b8 e5 3d 32 3e 26 3e
       0.111416146 0.046722706 0.1121688 0.16234663
0002a0 66 79 18 3e 87 59 24 3e 73 59 4f 3e 9c a9 13 bd
       0.1489006 0.16049777 0.20248966 -0.036050424
0002b0 c1 d0 d9 3c 02 a5 4e 3c 50 95 c8 3c 49 d2 47 bc
       0.0265888 0.012612583 0.02448526 -0.012196132
0002c0 fa 18 fb 3b c6 07 8d 3c 9b 4b a0 3d 80 52 81 3c
       0.0076628895 0.01721562 0.078269206 0.01578641
0002d0 ad 02 8a bd e9 df 90 bd ed 78 a3 bd b9 10 dd bc
       -0.067387916 -0.070739575 -0.07982049 -0.026985513
0002e0 85 9a 5e bd 8d b7 af bc 71 d3 0f 3d 25 28 e4 3c
       -0.05434658 -0.021449829 0.035113756 0.027851174
0002f0 bd 04 de bc 80 e3 9b 3b 32 e5 91 3d 61 f3 25 3d
       -0.027101869 0.0047573447 0.07123794 0.040515307
000300 3f 5b a7 3d 43 fc a0 bc 3b fa 0a 3b 03 70 18 3d
       0.08171701 -0.019651538 0.0021206278 0.037216198
000310 3f 2b 27 bd 54 ec 75 bc 01 8d 97 bd b3 18 fd bd
       -0.040812727 -0.015009958 -0.07399941 -0.123582266
000320 a1 a6 03 be f0 d0 d1 bc 87 ac de bd 24 0a 1f be
       -0.12856533 -0.025612324 -0.10872751 -0.15531212
000330 4c 30 d8 bd c1 87 07 be 56 38 08 be 73 31 a9 3c
       -0.10556087 -0.1323538 -0.1330274 0.020653462
000340 9d 95 65 3c ae 24 57 bd 39 2d 9f 3d e4 61 e7 3a
       0.014012721 -0.052525215 0.077722974 0.0017653075
000350 d7 b4 d4 bd 17 73 8f 3d a1 d9 42 bd e1 76 96 bd
       -0.10386055 0.070043735 -0.04757083 -0.07346893
000360 76 e5 a2 3d 74 34 1f 3d 2c b8 a6 3d 0f 38 03 3e
       0.079539225 0.038868383 0.08140597 0.12814353
000370 28 4e dc 3d 82 1e 15 3e 3e 4e cb 3d 7e 37 81 3d
       0.107570946 0.14562419 0.09927033 0.063094124
000380 39 ed bf 3d b6 c7 b7 3d e6 a4 a5 3c 0e da 35 bd
       0.093714185 0.08973639 0.020220231 -0.044397406
000390 49 4a cc 3d ae a5 05 3d 4d b1 4b 3d 8d 0a 92 3d
       0.09975106 0.032628708 0.049729634 0.07130919
0003a0 a6 2c 59 bd 9f a8 14 3d b8 d3 ad bc d1 6b 50 bd
       -0.053021096 0.036293622 -0.02121912 -0.05088407
0003b0 4e 31 a6 bd 56 26 24 3d fd 76 2d bd 7b f4 89 bd
       -0.08114873 0.040075622 -0.042349804 -0.06736084
0003c0 c1 90 12 be 43 28 39 be 1c 6f 46 be 05 c1 5c 3c
       -0.14313032 -0.18081765 -0.19378322 0.013473754
0003d0 45 b8 62 bd 20 50 3e bc bd a2 31 bb b2 7b 1f 3c
       -0.055351514 -0.011615783 -0.0027105056 0.009734081
0003e0 1c 5f aa bc 6b 0d 95 bd 62 05 2c 3c d4 1c 5b bd
       -0.020797305 -0.0727795 0.01049933 -0.05349429
0003f0 fa 78 5c 3d 75 eb e5 3c 9e 57 c1 3c a1 49 51 3b
       0.05382631 0.028066376 0.02360135 0.0031934755

net.3.resnet_block.0.bias f4 [32]
000000 0b 97 bb 3d 5b a4 0c bd 9c 96 27 be 28 80 34 3d
       0.091596685 -0.03433643 -0.16366047 0.04406753
000010 ab b8 8f 3d 98 f7 b4 bc ea 71 e0 bd 97 c8 8c 3e
       0.070176445 -0.022090718 -0.109592274 0.27496788
000020 e6 e6 13 3d 69 0b b9 3d 14 92 be 3d 27 61 8e bd
       0.036108874 0.090353794 0.09305206 -0.06952124
000030 8e bb a4 be ee 3f be bd 04 3d bf b8 a1 91 aa bc
       -0.32174343 -0.09289537 -9.118955e-05 -0.020821394
000040 04 b5 22 3f 9a 2f 2f be 45 3e 99 3e 3e 60 01 3e
       0.6355746 -0.17108002 0.2993032 0.1263437
000050 4b c2 c8 bd c9 cf c4 bd 78 de e3 bb 56 9c 5f 3e
       -0.098026834 -0.096099444 -0.0069540106 0.21836981
000060 74 f0 60 3e 05 62 91 be c8 6e fb bd a2 55 2f 3d
       0.21966726 -0.28395095 -0.12276989 0.042806275
000070 60 f7 fd 3d 71 7f 8e bf 65 36 a4 bd cc 78 cc b8
       0.12400699 -1.1132642 -0.080181874 -9.749978e-05

net.3.resnet_block.1.weight f4 [32]
000000 ec e5 67 3e d2 c7 e9 3c 8f a2 b9 3d 3e cf 7d 3c
       0.22646302 0.028537665 0.09064209 0.015491305
000010 ba 5b 13 3d fe 02 6c 3e 4b a9 b6 3d 7c a4 d7 3d
       0.03597615 0.23048016 0.08919009 0.1052942
000020 57 35 88 3e f4 29 82 3e b4 58 db 3d b7 00 5a 3e
       0.26603195 0.25422633 0.10710278 0.21289335
000030 33 34 c3 3d ad 90 ea 3d 7b 98 17 3d f9 c4 b2 3e
       0.095314406 0.11453376 0.03701065 0.34915903
000040 32 08 a9 3e 3d b7 0c 3e f4 09 68 3e b1 d8 74 3e
       0.33014065 0.13741775 0.22660047 0.23910786
000050 f6 f3 33 3e 61 40 ff 3c f9 36 ab bb 28 e9 c6 3e
       0.17573532 0.031158628 -0.005225059 0.3884976
000060 ab 57 35 3d d0 a5 86 3d 3e 65 3d 3d 4f f0 1f 3e
       0.04427306 0.06574595 0.04623913 0.15619014
000070 63 43 11 3e a9 e6 a8 3e 09 c8 15 3d cb 7f c8 3d
       0.14185862 0.3298848 0.03656772 0.097899996

net.3.resnet_block.1.bias f4 [32]
000000 1e ff f5 be 98 d1 28 be b1 fd a2 3e 7e 33 52 3e
       -0.480462 -0.16486204 0.31834176 0.20527455
000010 61 4b 49 bf 08 9c 0e bf 60 35 8d 3e 7a 7d 92 3d
       -0.78630644 -0.55706835 0.27579784 0.07152839
000020 01 e6 d1 be 6e ef 16 bf 56 14 3f bf e3 69 e8 bd
       -0.40995792 -0.5895909 -0.74640405 -0.11348321
000030 38 12 c4 3d 8d a1 2f bf 05 2d 21 bf d7 c8 a8 be
       0.095737875 -0.6860588 -0.6295932 -0.3296573
000040 73 3c 2c be 08 93 53 3c 04 28 e5 be 51 19 77 be
       -0.16819935 0.012913473 -0.44757092 -0.24130751
000050 cd e3 1c bf 2a 8d 36 bf 9d 12 00 bf 4a aa dd be
       -0.61285096 -0.7130915 -0.500284 -0.43293983
000060 3c ea 87 3d ec 2c 49 3d 62 d2 b2 bd 2e 7d 12 bf
       0.066364735 0.049115106 -0.087315336 -0.5722226
000070 03 f7 20 bf 69 89 4e be d1 70 cc be 63 88 11 bf
       -0.6287691 -0.20169605 -0.39929822 -0.56848735

net.3.resnet_block.1.running_mean f4 [32]
000000 12 df d9 3f f7 11 e3 be ec 36 f0 3f 57 44 45 40
       1.7021201 -0.44349644 1.8766761 3.0822961
000010 a9 ea 3e 3f 13 ee a3 3e 87 b6 05 40 6e 62 07 40
       0.74576813 0.32017574 2.0892656 2.1153827
000020 6d 2b 84 3f 17 ea 21 3f 6a ef d6 bf 11 3d 4a 40
       1.0325752 0.6324782 -1.6791813 3.1599772
000030 7f 86 e4 3f 18 e8 91 bf f2 23 c9 3e 6c ff 34 40
       1.7853545 -1.1398954 0.39285237 2.8280897
000040 d7 be 90 40 9c 00 32 40 56 fe 1c 40 00 f1 d9 3f
       4.523296 2.7812872 2.4530234 1.7026672
000050 a7 98 11 c0 68 94 34 be 44 8f 08 40 8c 5d 1a 40
       -2.2749422 -0.17634737 2.1337442 2.4119596
000060 a5 1f 1d 40 37 f8 cb 3f 22 28 90 3f 5a fc 0d 3f
       2.4550564 1.5935124 1.1262248 0.5546318
000070 ef 6e eb bf 47 4d b7 3f e9 81 90 3e d4 85 1d 40
       -1.8393229 1.4320458 0.28224114 2.4612932

net.3.resnet_block.1.running_var f4 [32]
000000 1d 9b c7 3e a4 4f 90 3f dd cc ce 3f 1e 2e db 3f
       0.3898553 1.1274304 1.6156269 1.7123449
000010 57 1d c1 3e 42 9c 26 3f e9 2c 16 40 13 f3 c2 3f
       0.37717697 0.6508218 2.346491 1.523043
000020 bf 4a f8 3e d1 7f 14 3f 68 7c b1 3f 10 7f ed 3f
       0.48494527 0.5800753 1.3866091 1.8554401
000030 ed 9b e6 3f 6c cb 8a 3f 22 e3 0a 3f 10 41 a1 3f
       1.8016335 1.084333 0.5425283 1.259798
000040 06 ee 49 40 b9 ea 01 40 54 79 b4 3f 77 59 1a 3f
       3.1551528 2.0299513 1.4099526 0.6029276
000050 72 5f 58 40 e5 d6 ff 3e 1c f0 3f 40 37 dc 7a 3f
       3.3808255 0.4996864 2.99903 0.9799227
000060 92 14 ba 3f 81 a3 55 3f 6e 6e f0 3e 58 f3 4d 3e
       1.4537528 0.8345261 0.4695925 0.2011236
000070 62 e0 bb 3f bd fe c8 3f 01 f5 4d 3f 7d 82 71 3f
       1.4677851 1.570274 0.8045197 0.94339734

net.4.resnet_block.0.weight f4 [32, 32, 3, 3]
000000 ee 3a 4a be 47 ca c2 bd 94 60 1d be 92 95 1a be
       -0.19749042 -0.095112376 -0.15368873 -0.15096119
000010 c9 a1 05 be 06 fe f6 bd ad fd 19 be 05 93 8e bd
       -0.13049997 -0.1206017 -0.15038176 -0.069616355
000020 a7 c8 92 bd 23 44 ff 3c 4b f1 bb bc 14 13 53 3d
       -0.07167178 0.03116042 -0.022942206 0.051531866
000030 c1 c5 ff 3c b8 2f a1 3d cb 6d e5 b9 56 cd 8a 3d
       0.031222226 0.0787043 -0.00043760086 0.06777446
000040 14 87 53 3d 46 e5 9f 3d 2a 20 52 3d 1a 25 16 3e
       0.051642492 0.07807402 0.051300205 0.1466259
000050 ca b3 22 3e 28 0f 18 3e d1 0a de 3d f6 09 3b 3e
       0.15888897 0.14849532 0.10841907 0.18265519
000060 e8 a3 09 3e 93 fd 44 3e 7d e8 fe 3d 43 bb 1f bb
       0.13441432 0.19237356 0.12446687 -0.0024373091
000070 bb 49 83 bc 2b 9b 84 bd 19 d3 e8 3c 31 94 68 bd
       -0.016026368 -0.064749084 0.028420972 -0.05678195
000080 d5 8b 80 39 a8 8a 15 3c cb 9d 5e bd 53 fb e7 3c
       0.00024518245 0.0091272965 -0.0543497 0.028318083
000090 72 f2 86 3e 5e 92 a0 3e 20 c0 b9 3e 56 df 3d 3e
       0.26356846 0.3136167 0.36279392 0.18542227
0000a0 09 69 ac 3e 23 b3 ab 3e f4 4b 47 3e 1f 62 5a 3e
       0.33673885 0.33535108 0.19462568 0.21326493
0000b0 a1 56 88 3e f5 1d c4 3c f3 97 21 3e ba 6e 20 3e
       0.26628593 0.023940066 0.1578062 0.15667239
0000c0 af b9 ec 3d 46 74 fc 3d 35 8c 66 3e 48 eb 22 3e
       0.11558854 0.12326865 0.22514422 0.15910065
0000d0 93 5d 4f 3e 69 29 62 3e 06 3d c5 3d d7 a6 8a 3d
       0.2025054 0.22086109 0.0963078 0.067701034
0000e0 51 7d 98 3d d9 80 d4 3d f1 22 53 3e 9f 21 0f 3e
       0.07445777 0.10376138 0.20618798 0.13977669
0000f0 69 fd 2d 3e 12 73 34 3e fa 3f 42 3e e7 30 11 3e
       0.169912 0.17622021 0.18969718 0.14178811
000100 c1 47 f1 3d 9f bd 20 3e 1b b1 dd 3d 33 80 46 3e
       0.11781264 0.15697335 0.10824796 0.19384842
000110 be 44 55 3e f9 89 2a 3e 55 6d 11 3e c2 75 4f 3e
       0.20827004 0.16654195 0.14201863 0.20259765
000120 ec e0 e0 3d 06 fa 97 3d 05 9c ab 3d 60 0a 98 3d
       0.109804004 0.07420735 0.08379368 0.07423854
000130 d2 64 a6 3d a8 5d 23 3e 7c e2 a0 3d 4f 92 1a 3e
       0.08124699 0.15953696 0.078556985 0.15094875
000140 ec 27 df 3d 33 0f 1a 3d 2f da af 3d 45 82 16 3d
       0.10896286 0.03761215 0.08586537 0.03674533
000150 3b 3f d6 3d f9 24 02 3e 00 c4 38 3e 77 d4 69 3d
       0.10461279 0.12709416 0.18043518 0.057087388
000160 cc 95 0c 3e f6 9c 02 3e e5 dc b5 3e 3a 97 e5 3e
       0.13729018 0.12755188 0.35520092 0.4484194
000170 f5 48 05 3f 34 80 d1 3e f3 7c fe 3e 64 8e 1e 3f
       0.5206445 0.40918124 0.49704704 0.6193602
000180 d7 ec a9 3e 88 69 b6 3e ce bf 10 3f 0a 8f 4f bd
       0.33188507 0.3562739 0.5654267 -0.050673522
000190 8c 8d a5 bb a3 37 d7 bd 68 f9 94 bd e6 72 c0 bd
       -0.005052274 -0.10508659 -0.07274133 -0.09396915
0001a0 3e e6 0f bd 2b be 3f bc e7 90 15 bd eb d1 dd 3c
       -0.035131685 -0.011703054 -0.036515143 0.027077636
0001b0 ab 4e 67 3e 4c 78 83 3e a8 ac 78 3e 05 7c 17 3e
       0.22588603 0.25677717 0.24284613 0.14793403
0001c0 13 9b 67 3e 73 14 a2 3e ee aa ff 3d 17 71 84 3e
       0.2261775 0.31656227 0.12483774 0.2586753
0001d0 22 45 76 3e 2d d3 3b 3e e1 33 34 3e a5 bd 5e 3e
       0.2404981 0.18342276 0.17597915 0.21752031
0001e0 10 cd 24 3e 66 32 6e 3e 83 dd 37 3e b6 23 4f 3e
       0.1609385 0.23261413 0.17955594 0.20228466
0001f0 03 ca 60 3e 81 bf 84 3e 25 39 06 3e ae 84 a1 3d
       0.21952061 0.25927356 0.13107736 0.07886635
000200 ae b6 05 3e 0b d0 c9 3d 49 e6 b3 3d 72 cc 77 3e
       0.13057968 0.09854134 0.08784158 0.24199083
000210 03 ed c2 3d 80 97 2a 3e 8a 7f 2e 3e 75 b0 a4 bd
       0.09517863 0.16659355 0.1704084 -0.08041469
000220 82 1f 0f bd b2 11 eb bd e6 f4 a3 bd 62 fb 6a ba
       -0.034942158 -0.114779845 -0.08005695 -0.00089638506
000230 a2 c5 94 bc e9 ae 1c bd 84 a7 a8 bd b5 e0 84 bd
       -0.018160645 -0.038252745 -0.08235076 -0.06488172
000240 d5 36 56 bd 63 7b 6c bc 1c 47 7e bd 44 2c 8e 3b
       -0.052298386 -0.014433715 -0.062079534 0.004338773
000250 10 ff 8a 3d 01 9c 03 bd 9c 57 02 bd be 94 7c 3c
       0.067869306 -0.0321312 -0.031821832 0.015416322
000260 b8 6c 1a 3d b3 6a 08 bd b1 f2 0a 3d 03 77 67 bc
       0.03770134 -0.03330488 0.033922855 -0.014127496
000270 25 fd 7f 3d 1c d6 4b 3d c0 fc 9a 3d 2d dc d8 3b
       0.062497277 0.049764737 0.075677395 0.006618044
000280 d4 15 6c bc d7 7a 94 3d 72 17 3b 3b 2f 08 2a 3c
       -0.014409501 0.07249992 0.002854791 0.010377928
000290 0d ac d1 3c 01 a2 19 3d ad 97 e4 bc 18 68 c5 bc
       0.025594736 0.037508015 -0.027904356 -0.024097487
0002a0 ca c9 3a bc e0 78 63 3c e5 78 45 bd 54 17 1c bd
       -0.011400649 0.013883799 -0.048210997 -0.038108185
0002b0 c9 3c bb bd 3f de d7 bd 49 00 f5 bb a5 8c bb bd
       -0.09142453 -0.10540437 -0.0074768406 -0.09157685
0002c0 01 79 30 bd 15 c3 9a bc dc ab aa bd 21 28 90 bd
       -0.04308415 -0.01889185 -0.08333561 -0.07038904
0002d0 31 1c 83 3e 87 0a a3 3e e3 cc b5 3e 92 af 8b 3e
       0.25607446 0.3184397 0.3550788 0.27282387
0002e0 1a dd 7d 3e 65 87 ac 3e 48 31 5a 3e 39 0e 99 3e
       0.24791375 0.33697048 0.21307862 0.29893664
0002f0 31 55 a8 3e 90 3d 4b 3e 0a 64 84 3e 32 f1 72 3e
       0.32877496 0.19847703 0.25857574 0.23724821
000300 74 02 5f 3e 00 84 84 3e a3 94 6a 3e 74 20 0e 3e
       0.2177828 0.25881958 0.22908263 0.13879567
000310 b5 c3 1c 3e 98 92 7c 3e 34 4d 02 3e 05 b0 e5 3d
       0.15309031 0.24665296 0.12724763 0.11215214
000320 1f 22 f4 3d 9e 0c ad 3d 1a a9 64 3d 7a 7b a6 3d
       0.119205706 0.08449672 0.05582533 0.0812902
000330 53 bb cc 3d a5 1e c6 3d 23 10 f6 3d cb 5c 45 bd
       0.09996667 0.09673814 0.120147966 -0.048184197
000340 37 24 d1 3b a0 29 9b bc 45 b8 7f 3d fe 40 5b bc
       0.006382491 -0.018940747 0.062431592 -0.013382195
000350 6a 32 8b 3d eb 8b c5 3c 4c 87 5f 3d c7 4c c2 3c
       0.06796725 0.02411457 0.05457239 0.02371825
000360 2e 95 39 3c 07 1d b5 3c d3 39 cf 3c 78 b9 cc 3d
       0.011327071 0.022108568 0.025296127 0.09996313
000370 25 27 c5 3d e9 b8 14 3d d9 3f a1 3d 9d 40 00 3d
       0.09626607 0.036309157 0.07873506 0.03131162
000380 d4 49 ea 3c 69 f7 85 3c 1e b5 9d 3d c1 f2 01 3d
       0.028599657 0.016353326 0.07700561 0.03172565
000390 db d1 87 3d ea a0 0c bd f6 4d 31 3c 54 37 08 3d
       0.06631824 -0.034333147 0.01082181 0.03325589
0003a0 fd 9a e9 bc a0 67 34 bc fb d0 c4 3d e9 87 b1 3d
       -0.028516287 -0.011011034 0.09610172 0.08668501
0003b0 d5 e2 dc 3b 94 db f5 3d b6 d9 b7 3d 9c a4 80 3d
       0.0067409077 0.12004772 0.08977072 0.06281397
0003c0 f4 a4 92 3d c3 58 a3 3d ad e4 97 3d 97 3d 11 3d
       0.071603686 0.07975914 0.07416663 0.035459127
0003d0 03 7a 81 3d 2c 56 26 3e aa eb c6 3d d3 ee 19 3e
       0.063221 0.1624381 0.09712918 0.1503251
0003e0 58 66 6e 3e 04 1d 93 3d 90 1a 0f 3e a1 3d 6c 3e
       0.23281229 0.07183269 0.13974977 0.23070385
0003f0 f2 24 f0 3d c0 de 34 3d 39 97 46 3e a6 45 ca 3d
       0.11725797 0.044157743 0.19393624 0.09876566

net.4.resnet_block.0.bias f4 [32]
000000 c0 7a a5 3d 99 16 82 bc 9d c9 30 bd 12 19 a6 be
       0.08080053 -0.015879916 -0.043161023 -0.32441002
000010 07 fb bf 3d 31 71 8e be 5f cd 6d 3e 36 3b 6e bd
       0.093740515 -0.27820733 0.23222874 -0.058161937
000020 96 33 04 3e 44 38 81 bd ec e8 b8 bd 29 f9 4d 3e
       0.12910303 -0.0630956 -0.09028801 0.20114578
000030 eb 6a 84 bd 89 d6 32 3e f9 f9 b5 3d 96 f2 6f 3d
       -0.064657055 0.17464651 0.08885569 0.058580957
000040 c1 bd b6 3d 74 0c 3b 3e c6 e9 9c bd 50 31 d4 3c
       0.089229114 0.18266469 -0.07661776 0.02590242
000050 b0 de 87 bd 20 ac 88 3e 21 f4 3e 3e 4e 11 13 3e
       -0.06634271 0.2669382 0.18647815 0.1436207
000060 57 b6 91 be 19 09 44 bd 58 e6 6e 3e 4d 5d 09 3d
       -0.28459427 -0.04786024 0.23330057 0.033536244
000070 50 48 2f be 6a df b6 3e b8 eb c1 bd 25 3f 1b 3e
       -0.17117429 0.35717326 -0.09468788 0.15160806
